model.ckpt (torch_old, 118956 bytes, 14 tensors)

layer1.0.weight f4 [16, 1, 5, 5]
00000000: 3be9 acbe 9df6 1bbe 1740 973c baa6 b6bb
00000010: 8eb5 fc3d e8a9 b43c 46eb 7dbd a0eb 383d
00000020: 5765 833d 5e04 2d3e 4976 b43c 0527 30bd
00000030: 45d6 c23d e89f 5d3e 3734 ac3d fca2 823c
00000040: c26b 87bd 5367 773d 7322 0b3e 6536 dc3b
00000050: 70c2 60be 8bde 903d 9213 04bd 8340 073e
00000060: aa7e 7e3d 27e5 813d 7a9f 333e a20e dfb7
00000070: e866 e13d 36c4 143e 802e e73b 5f2d 1a3e
00000080: e0e0 0a3d 8034 3b3d 74b5 0ebd 230e dfbd
00000090: aa31 aabc a41e e03d 84cb 7d3d 7976 d9bd
000000a0: 440c 43bd 4ebd eabd bec7 34be 3b03 25be
000000b0: 0b2c 80be bf38 bdbc 320b c1bd cdf1 87bd
000000c0: 009e 24be c923 463c 4110 c1bd 703b 8fbc
000000d0: 1b56 1c3d bb61 0f3e f1bf 113d b20f ccbc
000000e0: 20e6 7ebc b046 f93d 89be 38bc 2171 a8bd
000000f0: ad0e 10bd d6c6 f23d f1ec 5ebd af79 f63b
00000100: ae56 58be 39ba 1ebd 5268 48bd 4a27 aabc
00000110: 20ab 9dbe da83 c3bc 3d91 40be b03f 18be
00000120: d255 73be d0cf b43d b3cc 323e 58a4 3f3e
00000130: ae74 3d3e e65f 353d 7bb9 923d 9f9c 2d3e
00000140: 99c2 b1bd 2d48 133d b412 363d 458e 943b
00000150: 8814 fdbc 0538 873d 932e 70bd d863 f7bd
00000160: 1338 5e3e 1a9d a83d 82fe fe3d 8922 7cbd
00000170: f066 6a3d 97c0 d6bd d8c9 843e fdfb 13be
00000180: d879 c33c 54a9 d8bd a609 5fbe 9c50 323e
00000190: 5ed3 b73b a981 b03b 716e da3c 64f2 803d
000001a0: fc69 b6bd ad27 123d 2d7c 08be 825d 9c3c
000001b0: 030d 28be 6af8 843c 6fe2 ecbc 0912 c23d
000001c0: b220 ef3d 99f5 8f3d 490d 93be 2bae 0c3c
000001d0: 1883 8b3d 9c33 03bb e5f1 3c3e 7753 4dbd
000001e0: 18ed 27be 5e5c 42be 5b55 473b ecc0 c53c
000001f0: a5e1 fd3d 32cd 963d cbff 393a e979 de3c
00000200: 87c5 04be 11b4 6bbe c6e9 79bd ce98 993d
00000210: 73b2 6f3d 8af2 5abe c01b 1cbe b86a 18bd
00000220: 8274 bebc 7380 21be 551c 5fbd 2953 143e
00000230: bcbd 323e 3093 a93d 8ba0 15be 1f13 1abe
00000240: 81cf c7bc 4329 913d 4971 49be cb9c e0bc
00000250: 8f4d 583e 5db3 b53d e3fe 12be fbbf 31be
00000260: 9cf3 293e a591 673e a7d8 f53d 5f81 133e
00000270: 95f0 713e 918a 463e 94e4 20be e346 71be
00000280: 9151 aabd 7f39 083e 0ff7 f8bd d014 84be
00000290: b80c 1e3d 724a b33d 348e 813d b12b d6bd
000002a0: 105a 373d 3d29 823d f06f 8ebd ac07 d9bd
000002b0: c760 8b3d 7e86 b93d b01e 3a3b efca 763d
000002c0: 3eef b93c af76 63be fd05 dbbd b855 1abd
000002d0: bf51 343e 729e 72be 891e 23be 1066 c83d
000002e0: b6dc f83d c804 9cbd 2d63 41be 3089 edbc
000002f0: 91de 9d3d c9c5 883d 3c84 303e a140 65be
00000300: d24f 2bbe 5482 243e c050 e83d 5ac4 c3bd
00000310: 4402 2fbe 283e 11be 3e7b 47bd 0f79 f13c
00000320: 83fa 0cbe add4 6ebe e6b8 3fbe eec3 703e
00000330: bdb9 96bd e2ae ca3d 83db 97bc 4e73 69be
00000340: cbde 85be 82b8 183e 2854 523e 7e4d c13c
00000350: dd53 f63d 5c06 9dbd 15ef e0bd f16c 1bbe
00000360: b497 323e cacf cabd 7e75 e7bc 089c 253c
00000370: b1ec f33d dab4 72bd f93e bf3d 5d83 b1bc
00000380: 959f d0bc 7009 1f3e 8546 d93d 3467 523e
00000390: eadd 583e 42ac b5bd 3e2f 32be 4ce3 6fbd
000003a0: 98da ebbd 78fb b9bd e6b0 65bd 22a5 85be
000003b0: d5d3 14be 1930 50bb 9cbd 183b a886 52be
000003c0: 6c57 6dbe 3169 b5bc e3bc 4a3e 37a2 8cbd
000003d0: b6b6 85bd df42 803d b96d 383e 1aa3 873d
000003e0: 19da fc3d dd87 0cbe 9bdc d53d cdb1 3f3d
000003f0: 08d6 55bc c4d2 2b3d e4ff 333d 2e1e 23be
-0.3377169 -0.15230794 0.018463178 -0.0055740746 0.12339316 0.022053674 -0.061991952 0.045146585
0.064158134 0.16896197 0.022029059 -0.043005962 0.09513525 0.2164303 0.08408397 0.015946858
-0.0661235 0.060401272 0.1358736 0.0067203515 -0.21949172 0.07073697 -0.032245226 0.13208203
0.062132515 0.063425355 0.17541304 -2.6590486e-05 0.11005956 0.14527974 0.007055104 0.1505637
0.033905864 0.045704365 -0.034841016 -0.10891368 -0.020775635 0.10943344 0.061961666 -0.106183
-0.04761912 -0.11461888 -0.1765432 -0.16114514 -0.25033602 -0.023098348 -0.094259635 -0.06637917
-0.16075897 0.012093493 -0.09426928 -0.017484397 0.038168054 0.14002125 0.03558344 -0.024909828
-0.015557796 0.12171686 -0.011275896 -0.082247026 -0.035170246 0.11854331 -0.054425184 0.00752183
-0.21126816 -0.038751815 -0.048927613 -0.020770688 -0.3079462 -0.023866583 -0.18805404 -0.14868045
-0.23763207 0.088286996 0.17460899 0.18715036 0.18501541 0.04428091 0.07164284 0.16954277
-0.08679695 0.035957504 0.04445143 0.0045335614 -0.03089358 0.06602482 -0.058638167 -0.120795906
0.21701078 0.0823309 0.12450887 -0.061556373 0.057227075 -0.10485952 0.25935245 -0.14451595
0.02386181 -0.10579172 -0.21781024 0.17413563 0.0056099137 0.0053865504 0.02666399 0.06296232
-0.08906934 0.03568237 -0.1332862 0.019087557 -0.16411214 0.016231734 -0.028916566 0.09476096
0.11676158 0.07029266 -0.28721073 0.008586447 0.068121135 -0.0020019775 0.1845165 -0.050128426
-0.16399038 -0.18980548 0.0030415866 0.024139844 0.12396554 0.07363357 0.0007095306 0.02715774
-0.12965976 -0.23017909 -0.06101396 0.07499848 0.05851979 -0.21381584 -0.15244961 -0.03721115
-0.023248915 -0.15771656 -0.05447038 0.14484848 0.1745519 0.08280027 -0.14612024 -0.15046357
-0.024390938 0.07087948 -0.19672121 -0.027418515 0.21123336 0.088721015 -0.14355044 -0.17358391
0.16596836 0.22614153 0.12004214 0.1440482 0.23626931 0.19388796 -0.15712196 -0.23562197
-0.08316339 0.13303183 -0.12156498 -0.2579713 0.03858635 0.08754434 0.06325951 -0.10457552
0.044763625 0.06355522 -0.06954944 -0.105971664 0.06805568 0.090588555 0.0028399639 0.060252126
0.022697087 -0.22213243 -0.106945015 -0.037679404 0.17609309 -0.23693255 -0.15929617 0.09785092
0.12151472 -0.076180995 -0.18885489 -0.02899608 0.07708467 0.066783495 0.17237943 -0.22387935
-0.16729668 0.16065341 0.11343527 -0.095589355 -0.17090708 -0.14183867 -0.048701517 0.02947667
-0.13767438 -0.23323317 -0.18722877 0.23512241 -0.073596455 0.098966375 -0.018537289 -0.22797891
-0.2614654 0.14914134 0.20539916 0.023596521 0.120277144 -0.076672286 -0.10983101 -0.15178277
0.17440683 -0.09902914 -0.028254267 0.0101080015 0.1191038 -0.059254505 0.09338183 -0.021669084
-0.02546672 0.15530944 0.10609154 0.20547181 0.21178403 -0.08870746 -0.17400834 -0.058566377
-0.11516303 -0.09081167 -0.056076907 -0.2610255 -0.14533933 -0.003176695 0.0023306375 -0.2055918
-0.2317788 -0.022144886 0.19798617 -0.068668775 -0.0652899 0.06262755 0.18010606 0.06622906
0.12346286 -0.13723703 0.10442468 0.046800423 -0.013051517 0.04194905 0.04394521 -0.15929481

layer1.0.bias f4 [16]
00000000: 264a ab3d 9a5c 953d 4e2c 783d 4ca4 b03c
00000010: b332 f03d 28a7 233e a0bc 1f3e 0c2a 123e
00000020: b39f 953d a6b2 3f3e 3aee 603d 866a 8f3d
00000030: 1a5a 103e 37dc 54be 1896 d03d 3215 053e
0.08363752 0.07293053 0.060589127 0.021562718 0.1172842 0.15981734 0.15599298 0.14273852
0.07305851 0.18720493 0.05491469 0.070027396 0.14096871 -0.2078713 0.10184878 0.12996367

layer1.1.weight f4 [16]
00000000: 528b c23d 2246 d73e 6328 283f eea6 c03e
00000010: a906 373e 0091 283f 0f22 dd3e 28af 4f3f
00000020: cbd9 1e3f 8894 da3e 9ad8 923e 32a6 0c3e
00000030: dc7d 623f a254 d93e 1574 943e d919 e83e
0.094992295 0.42045695 0.65686625 0.37627357 0.17873634 0.6584625 0.43190047 0.8112664
0.62051076 0.42691445 0.2868088 0.13735273 0.88473296 0.42447382 0.28994814 0.4533222

layer1.1.bias f4 [16]
00000000: eca4 d3bd ec8e d8bd 4471 3abe 5277 86be
00000010: 94a2 8b3b 83d9 26be 8a0e 7dbe c36b 16be
00000020: 81f2 0dbe 3dc6 87bd 998c 0fbe cac0 e3bd
00000030: 55e5 4bbe 2011 1cbe 4a01 a7bd d87f 62be
-0.10334191 -0.10574135 -0.1820727 -0.2626291 0.004261324 -0.16293912 -0.24712577 -0.14689545
-0.13862039 -0.06629608 -0.14018477 -0.11120756 -0.19911702 -0.15240908 -0.08154543 -0.22119081

layer1.1.running_mean f4 [16]
00000000: 7afd 0b3e 0f52 3e3c dadc 4abd 5b2d 053e
00000010: 283d ae3d 3ad6 9f3d 1c0c 433e 7912 203d
00000020: 751e 123c 9732 0b3e c24c 273d 8c28 633d
00000030: f25c 5c3d 271f 91be c9de 8f3d 3e91 e33d
0.13670912 0.011616244 -0.049527027 0.13005583 0.085077584 0.07804532 0.19047588 0.039080117
0.008918394 0.13593517 0.040844686 0.05545859 0.053799577 -0.2834408 0.07024915 0.11111687

layer1.1.running_var f4 [16]
00000000: 7ccc 9c3d f9af 883d b6fd 6c3d 22d1 343d
00000010: 8617 2d3c 7d5f 573d 0b74 c13c bbc8 a33d
00000020: f4a5 e63c 2390 2b3d a859 ad3c 21b0 5b3c
00000030: 61ec 1e3d b2f5 963c 52ad 893c fb4f be3c
0.0765619 0.06674189 0.057859145 0.044144757 0.01056469 0.0525813 0.023614904 0.07997271
0.028155304 0.041885506 0.021160915 0.013408692 0.038799647 0.018427704 0.016806278 0.023231497

layer2.0.weight f4 [32, 16, 5, 5]
00000000: 19fe 26bd 0679 47bc ceb1 44bd 1f34 923c
00000010: f459 d83b 5d85 aabd c0c5 a7bc 08a7 5b3d
00000020: 5b5b af3d 239f 843d e080 cdbc 51d8 4f3d
00000030: 7a7c 6c3d ff09 ad3d a37f 9f3d 87c6 0bbc
00000040: 23b6 083d 5c15 063b 0c88 8d3d 0b81 403b
00000050: cc2b 8ebd 4e85 873c b6fd ab3c 2cda 993d
00000060: 8507 073c 2117 babc bd56 cebd 3432 72bd
00000070: 9187 293d 682f c3bc 7ba2 88b9 ea34 5e3b
00000080: 8e2d a13b 2138 a0bd ef8c 02bc 5c9f 233d
00000090: 3783 883d 8e0c 07bd 89f6 4cbd 38c6 77bd
000000a0: 5285 843d d4be 053c 3175 5fbc aa4d c9bd
000000b0: 4f73 4bbc 3f35 8b3d 4988 bd3c 222a 07bd
000000c0: 2c3b e2bd 4dca 92bd a1d9 c6bd f5b1 90bd
000000d0: 13f8 023d 3e51 893d 2cb7 26bd f4b8 e23c
000000e0: faac 66bc 1440 063d d8f5 d63d 30de a83c
000000f0: fe3d 6bbd 9d4c 52bb a529 0dbd 44de e7bc
00000100: cfe1 5bbb 034a bc3c fa61 883c b420 783d
00000110: e2a7 27bc ab4a 763c ddcb 403a 325e 8f3d
00000120: 0051 88bd 0853 2dbd 894d bfbd d15d 363d
00000130: 5d1e cc3c e799 adbc f29e ef3c 4309 fabc
00000140: fe3b 433d 997e e7ba 3090 1f3d 802a 4abd
00000150: 0a95 583d 7e91 52bd 18fe cf3c 491f c03b
00000160: f056 d73c c260 2fbd 158b 0cbc aee0 c7bc
00000170: c47c 553d 005b 553d 08d1 6e3d 24ad 06bc
00000180: 5e2f 9abc 549c e0bb e358 353d 5c6f 3e3d
00000190: d00c ee3c 98dc d43c d9be 61bd 002b 89bd
000001a0: 4c80 25bc 14fc bb3d d1af a7ba 5de6 943c
000001b0: 437f c7bc a733 b03d fc7c 2abc bea8 3bbe
000001c0: 567f aa3c 3214 85bd ca1d 34bd fdaf 8ebd
000001d0: 95bc 41be 46d6 a8bd a8fd 7a3d 8fe2 453d
000001e0: a2fd 97bd 119a 5bbd 087e 8f3c e6db c53b
000001f0: a34f ec3c 29be b2bd 9aa7 bcbb f1cf 39bd
00000200: fcd2 5e3b 27ee e23d 8b3e de3c 321d 5e3d
00000210: e6df adbd c1b5 183d 3acb de3c aefb cf3d
00000220: 576b 093b a75c e4bd d900 59bd 89f3 ed3c
00000230: 8c1c f03c 54fe babd ef24 bdbc e37e 823c
00000240: 787e 25bd e4a2 88bc 8f1d 3bbd 2774 be3d
00000250: 0199 2d3d 6384 8dbd 06d7 323d 78b9 08bd
00000260: fa9e 5bbc 2ba0 683c 7bea 553d 31aa 0c3d
00000270: 762a 5cbd 9b81 0cbb b2e9 46bc 7cc9 0d3d
00000280: c10b 9dbb bdb0 f0bc f3b5 61bc 2fcd 923d
00000290: a1af 9c3d 34ab 64bd 9d8b 2a3d 1bc8 763d
000002a0: 35fc a23c d654 f63b f325 f6bc dbcc 18bd
000002b0: 80f4 f5bc 4bc9 6f3d 9be4 4e3c 20a3 d4bc
000002c0: 0540 f6bd 0101 efbc 7442 dbbc 5c6f 1c3d
000002d0: 9bfa 80bd c72c 8bbd 3f38 b6bd 4523 9a3c
000002e0: 7016 9b3d f0a7 d2bc 0759 9cbd fc48 a5bd
000002f0: 0091 423c a45b f83b b4ee 99bc b1fc a7bc
00000300: 8791 a83d 2f23 923d 2705 4d3c 81b9 983d
00000310: 30a2 fa3c 6952 dc3d aba0 4c3c ce8b 463d
00000320: a378 143d 645e f73c 481f 523c 8a25 80bc
00000330: 3821 53bd fe24 5b3c 1645 393d d3d7 06ba
00000340: 2d6a 2a3d 7e39 26bc 0610 9e3d 6644 8e3d
00000350: ef81 0dbd 1cee bcbd 7100 ba3a cd7a e5bc
00000360: 7e94 7dbc 28eb c7bd 6660 d9bd a28b eabc
00000370: dd92 5abb f12d 29be 93e3 8ebd 6016 15bd
00000380: 5408 5e3d a066 e53c 23d7 e43c 6458 69bd
00000390: 8966 a63d efb2 0a3d 9aae c13d 7d03 623c
000003a0: d21c a4bc 6c24 0b3d 30d5 a2bd 64af 883b
000003b0: 2d33 e2bc 9b13 853d 0458 edba 3a23 043b
000003c0: a730 32bd dd67 13bb 0865 f4bc bdc6 0d3c
000003d0: f581 5cbd c7aa bd3b ab4d 443b 73fc aebc
000003e0: 2aee 723d 8ee6 4ebd 3bd8 af3d e4a7 23bd
000003f0: 82ce 613d c06b 973d 4fcc 10bd 03c4 5d3d
-0.04076967 -0.01217485 -0.04802113 0.017847119 0.00660252 -0.08326218 -0.020480037 0.05362609
0.085623465 0.064756654 -0.025085866 0.050743405 0.057735898 0.08449172 0.07788017 -0.008531219
0.033376824 0.0020459509 0.069107145 0.002937379 -0.06941947 0.016543057 0.020995002 0.07512316
0.008241539 -0.022716107 -0.10075138 -0.05912991 0.04138905 -0.023826316 -0.00026061 0.003390605
0.0049187606 -0.07823206 -0.0079681715 0.0399469 0.06665652 -0.032970957 -0.0500398 -0.06049177
0.06470741 0.008163173 -0.01363878 -0.09829266 -0.012417628 0.06797265 0.023136275 -0.032999165
-0.110464424 -0.07167492 -0.09709478 -0.070651926 0.031974863 0.06704949 -0.04070203 0.027676083
-0.014079327 0.032775953 0.1049611 0.02061376 -0.057432167 -0.0032089122 -0.034463543 -0.028304227
-0.003355134 0.02298451 0.016648281 0.060578063 -0.0102328975 0.015032451 0.0007354597 0.07000388
-0.066560745 -0.042315513 -0.093409605 0.044523064 0.024916822 -0.02119155 0.029250596 -0.030521994
0.047664635 -0.001766163 0.038955867 -0.049356937 0.05287651 -0.051408283 0.025389716 0.0058631045
0.026286572 -0.042816885 -0.008578082 -0.024399128 0.05212094 0.052088737 0.058304816 -0.008219991
-0.018821415 -0.0068545733 0.044274222 0.04649292 0.029058844 0.025984094 -0.055113647 -0.06697655
-0.010101389 0.091789395 -0.0012793486 0.018176252 -0.024352675 0.08603602 -0.010405775 -0.18326089
0.020812672 -0.064979926 -0.04397372 -0.06967161 -0.18919595 -0.082439944 0.06127706 0.048311766
-0.074214235 -0.053613726 0.017516151 0.006038177 0.028846567 -0.087276764 -0.0057572844 -0.045364324
0.0034000268 0.1108058 0.027129432 0.05422706 -0.08489971 0.03728271 0.027196515 0.10155426
0.002096852 -0.111504845 -0.052979324 0.02904679 0.029310487 -0.091305405 -0.0230889 0.015929645
-0.040403813 -0.016679235 -0.045682486 0.09299498 0.042382244 -0.069100164 0.043662094 -0.03338
-0.013404602 0.014198343 0.05222557 0.034341995 -0.05375143 -0.0021439556 -0.012140678 0.03461598
-0.004792661 -0.02938115 -0.01377629 0.07168042 0.07650686 -0.055827335 0.04163705 0.06024943
0.019895652 0.0075174375 -0.030047392 -0.03730474 -0.030023813 0.058541577 0.012627746 -0.02595669
-0.120239295 -0.029175283 -0.026765086 0.038192138 -0.06297799 -0.0679565 -0.08897447 0.018815646
0.07572639 -0.025714844 -0.07634168 -0.08070561 0.011875391 0.007579284 -0.01879058 -0.020506235
0.08230882 0.07135617 0.012513435 0.07457257 0.030594915 0.10757906 0.012489478 0.048473172
0.03624786 0.030196376 0.012824841 -0.0156429 -0.05154535 0.013375519 0.0452319 -0.00051438547
0.041605163 -0.010145543 0.077179 0.0694664 -0.034547742 -0.09225103 0.0014190805 -0.028012658
-0.015477298 -0.09761649 -0.1061409 -0.028631035 -0.0033351697 -0.16521432 -0.06977 -0.03639829
0.05420716 0.028003037 0.027934616 -0.05696906 0.08125026 0.03386205 0.09457131 0.013794777
-0.020033274 0.03397028 -0.079508185 0.004171299 -0.027612293 0.0649788 -0.0018107896 0.0020162598
-0.04350343 -0.0022492327 -0.029833332 0.00865334 -0.053834874 0.0057881805 0.002995352 -0.021360612
0.059309162 -0.050512843 0.085861646 -0.039955035 0.05512858 0.073935986 -0.035351094 0.05414201

layer2.0.bias f4 [32]
00000000: 2945 593c c7cb b8bc 650d 1cbd 1691 c2bc
00000010: c002 0abc c31b 133c f457 d43b 5afb aabc
00000020: 22bb 693d 2ebc 15ba 4949 89bb 117f 24bd
00000030: 4cf7 733d 5f0e 30bd fd57 173d 04d4 66bc
00000040: a4fe 843b af09 0cbd 99bf 1dbc 54f9 6fbb
00000050: 65a6 0bbd 308f 67bd 2b2f e0bb b6f1 223d
00000060: ba72 313d 3528 1bbc 9736 cabc f6df 223c
00000070: 244e 0c3d c1a1 cb3b bbea 753c b08d 363c
0.013261118 -0.022558106 -0.03809871 -0.023750823 -0.008423507 0.008978787 0.0064802114 -0.020871807
0.05706323 -0.000571194 -0.0041896445 -0.040160242 0.059562013 -0.042982455 0.036949147 -0.014088634
0.004058676 -0.034188922 -0.0096282 -0.0036617117 -0.034094233 -0.05653304 -0.0068415604 0.039781295
0.043322302 -0.009470035 -0.024684234 0.009941092 0.03425421 0.006214351 0.015009577 0.011142179

layer2.1.weight f4 [32]
00000000: 66a1 903f 0ab8 253f aaf4 cb3e 30a1 4b3f
00000010: 027d 743f 8ceb cf3e 4403 da3e e9e2 593f
00000020: d996 4f3f acd1 9f3e c1f5 5f3f ef00 9b3f
00000030: d977 1d3f 102a f73e 0d16 0a3f 33a6 3a3f
00000040: 2a07 793f d4b8 213f 3a61 413f 3074 9a3f
00000050: 50fb 0c3f fb7d 2e3f 6831 173f 09e1 423f
00000060: 4804 443f 1882 e13e 7ad6 4b3f 04dc 8b3f
00000070: 1f71 043f f68d 143f b30f 273f fb97 063f
1.1299255 0.64733946 0.398351 0.7954283 0.95503247 0.40609396 0.42580616 0.8511186
0.8108955 0.31214654 0.87484366 1.210966 0.61511 0.4827428 0.53939897 0.7290985
0.97276556 0.6317265 0.7553898 1.2066708 0.5507097 0.6816098 0.5905976 0.76124626
0.7656903 0.44044566 0.7962414 1.0926518 0.5173511 0.58029115 0.6525833 0.52575654

layer2.1.bias f4 [32]
00000000: da30 e2bd e8a1 7bbd ad9c b5bb fd4f c8bb
00000010: 2605 5bbd 3170 10bd a824 743d 2c12 c2bc
00000020: a0bb 30bd 4696 39bd 2344 9dba e220 3ebc
00000030: 91d5 c0bd e1dc 9fbd 2794 b1bd 3650 8ebc
00000040: ec37 acbd cf8b 7bbd e404 31bd 9635 50bd
00000050: f779 82bd 69a3 053c 73b0 86bd 6ebe b3bd
00000060: 2ee8 c2bd 38e3 2fbd 116a 1bbd ed88 85bd
00000070: 4da8 a53c f868 5cbd 9c45 2fbd a358 a4bc
-0.11044474 -0.061433703 -0.005542359 -0.006113051 -0.053471707 -0.035263244 0.05960527 -0.023690306
-0.043147683 -0.045309328 -0.0011998456 -0.01160452 -0.094157346 -0.07805801 -0.08670836 -0.017372232
-0.08409104 -0.06141263 -0.043217555 -0.050832354 -0.06370919 0.008156636 -0.06576624 -0.08776556
-0.09516941 -0.042941302 -0.03794295 -0.06520257 0.020221854 -0.053811044 -0.042790994 -0.020061797

layer2.1.running_mean f4 [32]
00000000: f27f c4bd 7508 d7bd 1b44 7c3e 687d a0bd
00000010: 587f 9abd ccbb 7a3d 654b 503e b98d 2dbd
00000020: ee2f 4c3e 06a8 c5bd 000d 303e 54e0 413c
00000030: 1f06 633e 26c8 973d c30d f23b e040 efbd
00000040: 0f8a 4bbd 45cf 0bbc 4b3a ac3d 1e97 46bd
00000050: 4e82 d8bc deaf ebbd 429a 19be 553d 11bd
00000060: 50dd 823d df96 763a 4533 3abe 8e4e cb3d
00000070: 4639 66bc b73f edbd a634 f5bd 8b2e 2a3c
-0.09594716 -0.1049966 0.24635355 -0.07836419 -0.0754382 0.061214253 0.2034126 -0.042371485
0.19940159 -0.096511886 0.17192459 0.011833269 0.22170304 0.07411222 0.0073868944 -0.11682296
-0.04969221 -0.008533304 0.08409556 -0.04848396 -0.026429322 -0.115081534 -0.15000251 -0.03545888
0.06389868 0.0009406637 -0.1818362 0.099270925 -0.014051741 -0.11584418 -0.119729325 0.010387073

layer2.1.running_var f4 [32]
00000000: 5664 053e 2130 2d3e ef8d f93d 9fcd 013e
00000010: 6270 d03d ab59 173e 90fa 0b3e 5133 033e
00000020: cec7 d33d 5a59 123e 456f dc3d 3d5a 0c3e
00000030: 101f 083e 5640 003e 656c f13d 991c aa3d
00000040: 7b82 e33d 63d2 f33d b404 243e f475 a93d
00000050: 8a99 173e 6cbc f43d 24ad 193e 33d7 0e3e
00000060: 3e41 023e b7f6 a13d 3bb7 f13d 3a98 eb3d
00000070: b777 ee3d 6d22 fb3d 16b4 ed3d a235 0a3e
0.13026556 0.16912891 0.12185275 0.12676094 0.10177685 0.147803 0.13669801 0.12812544
0.10340844 0.14291897 0.107634105 0.13706298 0.132931 0.12524542 0.11788253 0.08306236
0.111088715 0.119053625 0.16017419 0.08274451 0.14804664 0.11950001 0.15007454 0.1394928
0.127202 0.07908385 0.118025266 0.11503644 0.116439275 0.122624256 0.11606614 0.13497022

fc.weight f4 [10, 1568]
00000000: e430 2cbd 0ab2 823c 09e1 90bc 178b 263c
00000010: 6949 1cbd 1aa9 d3bd 147c 97bd 7b99 88bb
00000020: 4032 073a 2ef4 90bb 4310 403b 75b0 4ebc
00000030: 7ac0 4fbd 0d73 0ebe 96f6 773d 25e7 863d
00000040: 8936 db3c d542 f8bc a345 653d d484 8a3c
00000050: c12e 25bd b153 9d3d fe98 253d 1890 3e3d
00000060: 5aee a5bd 1b29 2fbd 101c af3d c542 4e3d
00000070: dd54 453d 570c 553d d612 d43c 8967 1fbe
00000080: dad3 bbbc 162f a83c b7c6 013c 454b cb3c
00000090: 0c37 ef3c fc13 71bc ae1f f33c ce8c ce3c
000000a0: f478 01bd 0943 6abd a8e7 d339 73f0 a5bc
000000b0: 8289 7d3c 5faa 8e3d eee6 683c 1c88 cfbd
000000c0: 909b 98bd f676 813c 39d7 98bd f312 b43c
000000d0: 20cc 043d 958d 0e3d 5c49 e63b 9e87 4ebc
000000e0: ec46 28bc 2a25 03bd d440 40bd 4d09 2cbd
000000f0: 444b ffb9 f98a 3d3c 0e70 33bd fca3 0f3d
00000100: 1c34 a03b 2092 85bd 9965 02be e4a2 b33d
00000110: 108a 9e3d b916 35be bb7e d23a 908e 50bb
00000120: 6c8e 81bd 8f25 c5bd 247d 0a3e 450c 6d3d
00000130: 6be0 8b3d 7b2d 153d 9062 2c3d 5130 823c
00000140: 9360 173d abf5 bf3c c979 503d 9d5e 14bc
00000150: 949b 103d 4a00 133c cb44 e63b 50d7 01bd
00000160: 828d a2bd 5935 0c3b bd42 db3c 4d07 143c
00000170: d277 51bd 4ce8 9fbd 81e0 ddbd f7fe a0bd
00000180: fd0a d7bc dd0b 9f3c bc1e 54bc acd7 80bd
00000190: 9f4f 96bd 6cc7 56bd 3990 3fbd c1c0 69bd
000001a0: 840b abbd 447a 483b 7a26 44bd d404 62bd
000001b0: 93eb e0bc 813f 31bd 9744 00be 0ad6 98bd
000001c0: 8c69 a0bc 9a9d 46bc a2b1 b23b 6f56 903d
000001d0: 9ceb 383d 387c 193d 1dd4 1f3c 71e7 4ebd
000001e0: 9faf 3cbd a3d7 dcbc d07c 423d a6ce 38bd
000001f0: de5c 9a3d 09a1 0e3d f360 03be e26f 4fbe
00000200: a9fb 84be 6105 70be 05c9 bcbd 126a 95bb
00000210: 458a 1f3c 4f5c 3f3d f78d 03bd b050 e7bd
00000220: 9096 8ebd b131 6dbd 76a6 c2bc eda9 19be
00000230: 9db2 0f3d 1c19 993c 79b3 6d3d 39f9 fdba
00000240: 73d6 ae3c e1b5 c1bd eaa6 26bd 42dd 52bc
00000250: f42b 1fbc 045c 5abd 11a5 aebd ed9e 5ebd
00000260: 52c3 a7bd ab94 5ebc ca0d 61bb c9ad c6bc
00000270: 7c46 c2bd 8fdd 40bd 6995 91bd 62ad 3dbd
00000280: b07f 62bc 7b15 213d 230f b0bc 5cea 16be
00000290: e45d 603d a10c f53c e29e 9ebd 018c e6bb
000002a0: 05ba 5e3d 46fd c33b 1560 94bd 27b2 a03d
000002b0: 771d 883d 8e58 e63b cbdc 7b3d 0553 173d
000002c0: a121 273d 6941 a7bd f51a 8fbc 182b b9bd
000002d0: 7032 4a3b 4ee1 703d e902 e2bc d91f 073d
000002e0: ef43 ba3d 287d 17bb 89b8 4fbd b503 10bd
000002f0: e773 393d 123f 0d3d 237c 0d3d 8ba8 62bd
00000300: b174 7ebe f46a 29be 6d92 5fbd c563 d23c
00000310: 32ec 8d3b 20c8 16bd 09ff 97bb 663e fe3b
00000320: a16c 31bd 94d6 41bd d31b 93bb 31d9 9639
00000330: e3be aebc 0104 edbc 4ef2 f03a b9a3 3a3d
00000340: 6cc2 d03d 1aa9 fc3c 24c1 073d 38ba e93c
00000350: 151d 63bc c416 c63d b73f dd3d 5168 d03d
00000360: 8519 b03d 2883 343c 3199 183d b098 0f3c
00000370: 6760 7a3d 394f 0d3c 90f5 103d 685a c33d
00000380: c372 ba3c 6b42 9cbc 28d9 8a3d 55d9 a9bc
00000390: 7bce 05be 858d b7bd 0af5 8f3c 99a1 8a3d
000003a0: 762d fb3c f589 053d 9e63 c2bc 5ca2 02be
000003b0: 2027 3ebe 40d7 b0bd 515f 853c 9a51 a9bd
000003c0: 4002 743c 7670 163d 25de f43c 4f0c 98bd
000003d0: 0f91 a23b 7644 48ba 66e3 ebbc f382 5cbd
000003e0: 271d 37bd bd87 c7bc 49fa f13c 863d bbbb
000003f0: 2a48 87bd ed76 2ebd 4b0b d8bd 3f0b a1bd
-0.042038813 0.015954036 -0.01768543 0.010164998 -0.038155947 -0.10334988 -0.07396713 -0.004168687
0.0005157329 -0.0044236397 0.0029306568 -0.012615313 -0.05072067 -0.13911076 0.060537897 0.06587056
0.026759403 -0.030305305 0.055974614 0.01690904 -0.04032779 0.076819785 0.040429108 0.046524137
-0.081021026 -0.04276381 0.08550274 0.050356645 0.048176635 0.05201372 0.025887888 -0.1556684
-0.022928167 0.020530265 0.0079209125 0.024816165 0.029201053 -0.014714237 0.029678192 0.025213625
-0.03160949 -0.057192836 0.00040417654 -0.020256257 0.015474679 0.069660895 0.014215214 -0.10133383
-0.07451546 0.015803795 -0.074629255 0.021981692 0.03242123 0.034802992 0.007027788 -0.012605576
-0.010270815 -0.032017864 -0.046936825 -0.042001057 -0.00048693467 0.011568778 -0.043808036 0.035068497
0.0048890244 -0.06522012 -0.12734069 0.08771303 0.07741177 -0.1768445 0.0016059497 -0.0031823255
-0.06325993 -0.09626304 0.135243 0.05787303 0.06829914 0.036420327 0.042086184 0.01589218
0.036957335 0.023432573 0.050897393 -0.009055761 0.03530462 0.008972237 0.0070272437 -0.03169948
-0.07937147 0.0021394102 0.026765222 0.009034944 -0.05113966 -0.07807979 -0.10833836 -0.07861131
-0.026250357 0.019414837 -0.012946781 -0.06291136 -0.07339405 -0.052436277 -0.0467684 -0.05706859
-0.08351806 0.0030590454 -0.047888257 -0.055180386 -0.02745608 -0.043273453 -0.12526165 -0.074627
-0.019581579 -0.012122536 0.0054533044 0.07047736 0.04514657 0.03747198 0.009755162 -0.05051369
-0.046065923 -0.026958292 0.04748231 -0.04511895 0.07537244 0.034821544 -0.12829952 -0.20257524
-0.2597325 -0.23439552 -0.09218029 -0.0045597637 0.009737556 0.04671889 -0.03211781 -0.11294687
-0.06962311 -0.057908718 -0.023761015 -0.15006228 0.03508245 0.01868873 0.058032487 -0.0019376642
0.021342492 -0.09458519 -0.040686525 -0.012870135 -0.009715069 -0.05331041 -0.08527578 -0.054350782
-0.08191551 -0.01358525 -0.0034340494 -0.02425279 -0.094861 -0.047086295 -0.07108576 -0.04630793
-0.013824388 0.039327126 -0.021491593 -0.14737839 0.05477704 0.029913248 -0.07745148 -0.0070357327
0.05437662 0.0059811203 -0.07244889 0.0784648 0.06646245 0.0070295995 0.06148986 0.036944408
0.040803555 -0.08166773 -0.017468909 -0.090414226 0.0030852817 0.058808617 -0.027589278 0.032989357
0.090949886 -0.002311537 -0.050713096 -0.035159785 0.04527655 0.034483977 0.034542214 -0.055336516
-0.24849202 -0.16544706 -0.054583002 0.02568234 0.004331135 -0.036811948 -0.004638557 0.0077589033
-0.043316487 -0.04732378 -0.004489401 0.0002877205 -0.021331256 -0.028932573 0.0018382759 0.045566294
0.10193333 0.030842353 0.033143178 0.028531179 -0.013861914 0.09672311 0.10803168 0.10176147
0.085986175 0.011017598 0.03725547 0.008764431 0.061127093 0.008624845 0.035390437 0.09538728
0.0227598 -0.01907464 0.067797005 -0.020733515 -0.13067047 -0.089625396 0.017572898 0.067691036
0.030661326 0.03260227 -0.023729142 -0.12757248 -0.18569613 -0.08634806 0.016280802 -0.082675174
0.014893115 0.036728345 0.029891083 -0.07424223 0.00496114 -0.0007639596 -0.028794955 -0.05383582
-0.044705536 -0.024356717 0.02953829 -0.0057141213 -0.06605561 -0.042593885 -0.10549029 -0.07863473

fc.bias f4 [10]
00000000: 860a 1b3d 4fdc b43d 525e 94bc 102d 10bc
00000010: ad6c a9bc b1fb 5f3c 1b28 91bc 6520 1abc
00000020: 06db 1ebd 236b 72bb
0.037851833 0.08831083 -0.018111382 -0.008799806 -0.020681703 0.013670848 -0.01771932 -0.0094071375
-0.038783096 -0.0036990128
