model.ckpt (torch_old, 270142 bytes, 4 tensors)

conv1.weight f4 [64, 3, 3, 3]
000000 6d 92 53 3d 69 4a fd bc 10 af f5 3d 59 f4 d8 3c
       0.051653314 -0.03091927 0.11996281 0.026483702
000010 7d 68 9a 3c 76 61 41 be 57 6e 43 be 10 04 03 3e
       0.018848652 -0.18884835 -0.1908506 0.12794518
000020 45 45 d3 3c c3 82 ef 3d 89 29 a1 3d 75 9a 99 bd
       0.025789866 0.11694863 0.0786925 -0.075001635
000030 c3 dc 65 bd ad bb da bd 27 43 df bc e9 b8 2e be
       -0.056118738 -0.106803276 -0.0272537 -0.17062725
000040 d5 85 6b 3b 49 dc 84 bd 3a 3f a7 3d 5e b6 46 3d
       0.0035937924 -0.064873286 0.081663564 0.048513763
000050 d3 3b 36 3e f9 ef cc 3c 1e 8c 6b 3d 1c 76 d3 bc
       0.17796259 0.025016772 0.057506673 -0.025813155
000060 83 f2 25 be b3 d8 1c be 66 5f 1f be 86 ee 2d b9
       -0.16205792 -0.15317039 -0.15563735 -0.00016587423
000070 5a 86 4d bc 06 ba f6 3d bb 24 0a 3e aa e7 1a be
       -0.012544239 0.120472 0.13490574 -0.15127435
000080 1e c7 03 3e 8a 1b 4b be 8e af 13 3e 42 6a 7c 3c
       0.12868926 -0.19834724 0.14422438 0.015406193
000090 2b c9 14 3e 12 67 82 bd ae 82 94 bd 92 1d 57 be
       0.14529864 -0.06367315 -0.07251488 -0.21007374
0000a0 50 db 65 be 2a aa b3 bd ca a2 34 3e 17 43 0c be
       -0.22446942 -0.087726906 0.17640224 -0.13697468
0000b0 cc 6f 32 bd 61 05 0d be 93 85 90 3d 92 ad 21 3c
       -0.04356365 -0.13771583 0.07056727 0.009868043
0000c0 05 2c 8b 3d cb 7f f1 3d 90 50 84 3d 7c 5f dc 3d
       0.067955054 0.11791953 0.064606786 0.107604
0000d0 0e 62 bd 3d 92 bb e4 3d 8e 04 2c bd 4b 20 ab 3c
       0.09247218 0.11168589 -0.04199653 0.020889422
0000e0 01 bf ae bc 41 2f a7 bd 3a 0b ed bb fc 33 37 3e
       -0.021331312 -0.0816331 -0.0072340043 0.17890924
0000f0 f7 31 1c be b7 2a 33 3d 09 36 50 3d be ba 7a 3c
       -0.15253435 0.043741908 0.050832782 0.015303312
000100 c0 22 9e 3d 24 57 ba 3d f4 69 ed 3d be f2 b4 3c
       0.07721472 0.09098652 0.115924746 0.022088405
000110 0a 53 d0 bc ac 4d 32 be 7a 19 82 bd 06 14 e0 bd
       -0.025430221 -0.17412442 -0.063525155 -0.10941319
000120 1d f9 b5 bd 21 6e b6 bc 0c de 2c 3e f3 c6 f7 bd
       -0.08885405 -0.02226931 0.16881579 -0.120984934
000130 d8 47 b8 3d 01 b0 a3 3d 58 94 bd bd ce 88 de 3c
       0.08998078 0.079925545 -0.0925681 0.027164843
000140 bb e1 0e 3a c3 b5 82 bd 5e ae 0f bd 3b d4 57 3d
       0.00054505066 -0.063823245 -0.0350784 0.052692633
000150 9c 1b f6 bd 19 c1 18 be b5 24 88 bd 3b 6d 3a be
       -0.12016985 -0.14917411 -0.06647626 -0.1820573
000160 0d 1e ea 3d cb 29 92 bc b0 87 4d 3d 42 c4 80 bd
       0.11431513 -0.017842194 0.05017823 -0.06287433
000170 05 ec 49 be 39 26 fe 3d b6 dd 8c 3c 71 2b 0c 3d
       -0.1971894 0.12409634 0.017195564 0.034221116
000180 99 85 38 bd 86 99 f7 bd 13 2f 88 bd d1 03 b9 3d
       -0.045049284 -0.12089829 -0.06649604 0.09033931
000190 6b 11 26 3d cd 52 cd ba 39 a0 d0 3d 0f bf 63 bd
       0.040543955 -0.0015664935 0.1018681 -0.05560213
0001a0 a2 6f 6d 3c eb b5 53 ba de a9 13 3e f6 ec 9f bd
       0.014491947 -0.0008076119 0.14420268 -0.078088686
0001b0 f6 e4 3b bd 01 0e 7f bd 46 e2 0a 3d 66 dc d9 3d
       -0.04587265 -0.062269215 0.033907197 0.10637741
0001c0 7c d9 83 3d 67 c3 f9 3c 12 b0 ac 3d dd a8 01 3d
       0.06437966 0.030488683 0.0843202 0.03165518
0001d0 b9 39 28 3d f7 57 04 be a5 33 9f bc d9 38 4c be
       0.041070674 -0.12924181 -0.019433806 -0.1994356
0001e0 64 79 fe bc da aa 2b 3e a2 ec 47 be fa af fb 3d
       -0.031063743 0.16764393 -0.19523862 0.12289424
0001f0 3d 94 0e 3a a8 13 24 be d2 27 96 3c 16 e2 df bc
       0.00054389593 -0.16023123 0.018329535 -0.027329486
000200 74 80 8e 3d 10 af e5 bd ca ba 84 3c 7c c3 0c 3d
       0.06958094 -0.11215031 0.01620235 0.034366116
000210 9a ca 1d 3e ac 11 21 3c 17 11 d7 3d 69 79 2e be
       0.15409318 0.009830873 0.105013065 -0.17038502
000220 f9 bd db 3d a6 85 f8 bd 88 41 11 bd 37 5f b5 bd
       0.10729594 -0.121348664 -0.035462886 -0.088560514
000230 7f 2d e5 bd f7 3b 06 be b5 8d 4b 3d f0 1a 2d 3e
       -0.11190318 -0.13108812 0.04969569 0.16904807
000240 8a 5b 3f be 75 f4 3a be bc 1a 19 3e ea 97 3e 3d
       -0.18687263 -0.18257315 0.14951605 0.046531595
000250 bf 2d 01 be 48 4c 14 3e dc b2 16 3c 72 a7 d6 3d
       -0.12615107 0.14482224 0.009197917 0.104811564
000260 a1 51 60 3d 84 c8 2d 3e 88 5b 23 3d aa 40 d9 bd
       0.054765347 0.16971022 0.039882213 -0.10608037
000270 9c 09 bd 3a 4c 6b 90 3d 27 fd 68 bd 32 a1 a8 bd
       0.001442242 0.07051715 -0.05688205 -0.082338706
000280 21 1e 3a be 36 15 f8 3d 6b b2 ce bd 02 f5 2c be
       -0.18175556 0.12113421 -0.10092624 -0.16890338
000290 ed 0d ba bc e9 06 8a bd 6e 36 1b 3e 51 d1 aa 3d
       -0.022711718 -0.06739599 0.15157482 0.08340705
0002a0 f1 eb 11 3d 27 5d 11 be 27 44 c9 bd 69 d4 1a bd
       0.035625402 -0.14195691 -0.09827452 -0.037800226
0002b0 16 66 ce bd 04 59 12 3e 63 ef d6 3d f7 ed 23 3e
       -0.10078065 0.1429177 0.10494878 0.16008745
0002c0 d7 aa 58 bd 0f 73 ef bd 83 8a 1a bd fb c4 16 3c
       -0.0528973 -0.116918676 -0.03772975 0.009202237
0002d0 75 90 ea bd 8e d2 33 be ec 37 c9 bc 46 48 38 be
       -0.11453334 -0.17560789 -0.024562798 -0.1799632
0002e0 12 1e f4 bd 07 e3 05 be f0 80 30 3e d6 17 a3 3c
       -0.11919798 -0.13074885 0.17236686 0.019908827
0002f0 72 1f d2 3d ae 72 bd bd d4 0c 2f 3d b6 78 0e be
       0.10259904 -0.09250389 0.042736843 -0.13913235
000300 db 2b 89 3d 4b 7d 51 3d 5a ed 88 3d 28 cb cf bd
       0.06697818 0.05114488 0.06685896 -0.10146171
000310 dc 71 06 ba d7 82 ef 3d 50 43 1b 3e 38 ca 09 3d
       -0.00051286607 0.116948776 0.15162396 0.033640116
000320 33 a8 4f be 80 38 26 be c5 91 dd 3d 28 63 f0 bd
       -0.20279007 -0.1623249 0.10818819 -0.117376626
000330 a6 6c 0c 3e 0d a9 b6 3d 19 0f 96 bd c8 06 61 3d
       0.13713321 0.08918963 -0.073270984 0.054938108
000340 70 90 ad bd 02 25 c3 bd 25 c9 d4 bd 51 5e ee 3d
       -0.08474815 -0.09528543 -0.10389928 0.11639083
000350 56 5b a5 3d 34 28 80 bc 9c f5 d8 3d 28 b2 db 3c
       0.080740616 -0.01564417 0.10593721 0.02681835
000360 27 28 89 3d 47 65 da bd 0b 41 0c be 06 68 1d be
       0.066971116 -0.10663848 -0.13696687 -0.15371713
000370 42 b6 22 3e b0 3e 04 be ad b9 c0 bd 7f b1 56 3e
       0.15889838 -0.12914538 -0.09410415 0.20966147
000380 31 e0 85 3d 1c 66 8a bd c2 d9 23 be 7b d6 4a be
       0.06536902 -0.06757757 -0.16001037 -0.1980838
000390 72 be ba 3d 33 b2 3c bc b4 76 39 3d b0 ca f1 bd
       0.09118356 -0.011517095 0.04527922 -0.11806238
0003a0 e3 dc 2c 3e e7 26 54 3d 92 f7 8e 3c d4 ea d3 bb
       0.16881137 0.051794913 0.017452035 -0.0064672027
0003b0 a3 8b 51 bd 8d 47 39 bd 5e 61 a1 3d 55 b5 15 3e
       -0.05115856 -0.04523425 0.078798994 0.14619954
0003c0 f6 54 ab bd ad de f7 3c be 02 e0 3d 4b a6 65 3d
       -0.083658144 0.030257547 0.10938023 0.056066792
0003d0 47 ca ee 3d 1e ae a2 bd 69 19 d4 bc b1 05 97 3d
       0.11659675 -0.079433665 -0.025891023 0.073741324
0003e0 62 11 b2 3c 56 d5 9d 3d d6 04 17 be 73 10 98 bc
       0.021736804 0.07706706 -0.14747939 -0.018562531
0003f0 39 12 2d 3e dc 22 f3 3c 3c b1 07 be ba e8 d7 bd
       0.16901483 0.029679708 -0.13251203 -0.10542436

conv1.bias f4 [64]
000000 8d ea 1a 3e e8 ff b0 bd 56 8e a2 bd 4a 91 28 3b
       0.15128537 -0.0864256 -0.07937305 0.0025721365
000010 06 d0 bf bd a6 83 2d 3e f9 bd 50 3e 55 e0 b4 bd
       -0.09365849 0.16944751 0.20384969 -0.088318504
000020 5d e1 e1 bd 72 d0 2f be dd e3 01 3e 50 70 6c bc
       -0.11029313 -0.1716936 0.12684579 -0.014431074
000030 9e 00 3c bc 0a d4 5e 3d 3c 13 2a 3e d6 f4 42 be
       -0.0114747565 0.054401435 0.166089 -0.1903871
000040 ab 75 3f 3e 89 5c 39 3e 59 e6 ff bd bd bb dd 3d
       0.1869723 0.18101706 -0.12495107 0.10826824
000050 1a 69 37 3e 79 99 d7 3d b9 18 41 3e 50 90 93 3c
       0.17911187 0.105273195 0.18857087 0.01801315
000060 86 4f 2b 3e bc 4c 2e 3e df 0f b4 3d cc c4 22 bd
       0.16729555 0.1702146 0.0879209 -0.03973846
000070 f8 1c 8c bd e6 5d 3c bd 37 62 3b bd 00 52 83 bd
       -0.06841463 -0.045987986 -0.04574796 -0.06412125
000080 bd 08 dd 3d 1a 2d e9 bd a3 20 2e be 4a 08 14 3d
       0.10792682 -0.113855556 -0.17004637 0.036140718
000090 eb 96 8d 3d d9 ab b5 bc 31 4e 5f bd ba e3 05 be
       0.06913551 -0.02217667 -0.05451793 -0.13075152
0000a0 a4 42 16 be 6b 4c d4 3c 41 0b 1c 3e ac de e9 bd
       -0.14673859 0.025915345 0.15238668 -0.114194244
0000b0 b2 49 1d be 81 a4 37 3e 0a c9 2d 3d 49 d7 23 3d
       -0.15360144 0.17933847 0.042428054 0.040000234
0000c0 a7 f7 0e be 0d d7 07 bd f3 28 c7 3d 01 e9 45 be
       -0.1396166 -0.033164073 0.09724607 -0.19327165
0000d0 48 bb b4 bd 63 58 6a ba 1b c1 33 be 13 c6 40 3e
       -0.088247836 -0.0008939562 -0.17554133 0.1882556
0000e0 1d 87 94 3d 6b 3b c4 bd e6 5d d1 3a b2 ab bf 3c
       0.07252333 -0.095816456 0.0015973418 0.0233973
0000f0 2d 5a 37 be b3 8c ca bd b4 a7 8a 3d 9e 32 19 3b
       -0.17905493 -0.098901175 0.06770268 0.0023376117

fc.weight f4 [2, 32768]
000000 71 69 5c bb 56 17 26 bb 2b 60 c1 3b e8 ec 27 ba
       -0.0033632184 -0.00253435 0.0059013567 -0.0006405846
000010 04 e9 ca 3a 10 75 bc ba c2 66 6a 3b 7b 77 af bb
       0.0015480821 -0.0014378149 0.0035766815 -0.0053548194
000020 cc d2 02 3b f6 de 94 bb c3 ee 9b bb ca 54 af bb
       0.001996207 -0.0045431806 -0.004758687 -0.005350684
000030 0a 95 a5 bb 89 32 9d 3b d3 85 5a bb d7 1c ae 3b
       -0.005053167 0.004797284 -0.0033343926 0.0053134966
000040 64 91 00 3b a8 7f bf ba 25 77 d4 bb 93 33 dd 3a
       0.001961791 -0.0014610188 -0.0064839297 0.0016876332
000050 e4 cf f8 bb 67 01 f7 b8 63 0c 1b bc 48 ab e4 bb
       -0.007593142 -0.00011778139 -0.009463402 -0.006978426
000060 f3 d4 42 bb 96 6e 8f b9 21 5b 2e bc 00 c2 16 bc
       -0.0029728978 -0.00027357478 -0.010641844 -0.009201527
000070 b6 a2 46 3a b8 77 9a ba 88 eb 27 3b 57 95 e6 ba
       0.00075773464 -0.0011784947 0.0025622565 -0.0017592114
000080 ca a3 e3 bb 8d 54 b8 38 c9 13 86 bb 6f ae 73 bb
       -0.0069470154 8.7895525e-05 -0.004091714 -0.0037182828
000090 c2 df ca 3a d1 6c 2d bb be f8 45 ba 90 1c 1e 3b
       0.0015478062 -0.0026462565 -0.0007552019 0.0024125911
0000a0 d7 20 08 bb 00 af 91 bb 5d 87 68 3b a1 f6 3a 3b
       -0.0020771527 -0.0044459105 0.0035481073 0.002852835
0000b0 7a 6b a3 ba 33 b1 ab 3b e0 54 06 3b d8 ea 69 3b
       -0.0012467944 0.0052396297 0.0020497367 0.0035692956
0000c0 85 e5 1f 3b 13 60 b1 3b 47 51 2c 3c e4 ba 2b 3c
       0.002439828 0.0054130643 0.010517425 0.01048157
0000d0 e0 ba 82 3a 91 40 32 3c 7e f4 90 3b e5 f0 21 bb
       0.0009973906 0.010879652 0.004423677 -0.0024710235
0000e0 b6 10 34 3c c0 57 90 38 5f 7a 83 bb 00 6f a9 39
       0.010990312 6.8828e-05 -0.0040123905 0.00032316893
0000f0 49 d9 90 3b a7 4b 93 3b 7b ee 1a 3c b4 a4 d0 3a
       0.0044204337 0.0044951024 0.009456272 0.0015918226
000100 f4 fb c9 3b bc e3 f7 3a e3 63 30 3b d5 b0 8b bb
       0.0061640684 0.0018912475 0.0026915006 -0.0042630234
000110 a2 9a b2 ba db b6 c6 3a a6 dd 08 3a e3 23 10 bc
       -0.0013626406 0.0015160696 0.00052210165 -0.008797619
000120 bf c4 ff bb c9 03 13 bc 64 83 3e bc 6b 30 8e bb
       -0.0078054364 -0.00897307 -0.011628006 -0.004339268
000130 55 41 f3 bb 1a a3 b6 bb 34 1f c7 bb 5c c2 b9 ba
       -0.0074235597 -0.0055736424 -0.0060767177 -0.0014172303
000140 35 6e 86 3a e3 48 71 3a 1a e1 0d 3b 5b e4 b1 bb
       0.0010256233 0.00092042814 0.0021649064 -0.0054288334
000150 b3 64 9c bb b5 0e 97 bb 93 44 29 38 24 a2 ad bb
       -0.0047727465 -0.0046099075 4.0356605e-05 -0.0052988697
000160 a7 21 af 3a 44 16 a9 3b 63 56 ca ba 56 08 a9 3b
       0.001336147 0.005160125 -0.0015437122 0.0051584644
000170 d2 10 87 3b 49 37 f2 3a 10 6a d7 3b 39 66 00 3c
       0.004121878 0.0018479611 0.006573923 0.007836872
000180 2d e9 e2 bb e3 a7 56 bb db ac b1 b9 a4 a5 1e 3c
       -0.0069247694 -0.0032753877 -0.00033888858 0.0096830465
000190 3e 6e 0b bb 4d fc 02 3c d4 d2 54 3b 45 0a 80 3b
       -0.0021275426 0.0079947235 0.0032474296 0.003907474
0001a0 73 4a d0 3b f0 f3 a3 b9 66 23 a2 bb d6 6e 6c 3b
       0.0063565313 -0.0003127153 -0.0049480675 0.0036076806
0001b0 86 a7 4a 3c d9 62 03 3c 9e f5 6e 3b 57 60 63 3b
       0.012369042 0.008019173 0.0036462317 0.0034694874
0001c0 db 7f c0 3a 4e 8f bc bb 78 0d 0e ba 7f 88 b9 3a
       0.0014686541 -0.005754388 -0.0005418877 0.0014155059
0001d0 93 f4 94 bb 3b 88 6e bb d4 de 04 bc 93 00 e6 bb
       -0.004545757 -0.0036397118 -0.008109767 -0.0070191114
0001e0 ae 6a 1a bc 3d 80 3f bc f7 fb 63 bc 8d 96 c3 bb
       -0.0094248485 -0.011688289 -0.013915054 -0.005968875
0001f0 e3 e9 90 bb 29 a9 e6 ba 4d 97 43 bb 13 18 cc bb
       -0.0044224127 -0.0017598021 -0.002984482 -0.006228456
000200 55 8c 5b bb 63 3e f8 b9 26 c9 4e b9 65 9a b8 bb
       -0.0033500392 -0.00047348728 -0.00019720625 -0.0056336396
000210 ac 67 b5 3b 1d 6e b4 3b 97 8b cb bb b4 29 d0 3a
       0.0055360403 0.0055062906 -0.0062117088 0.0015881569
000220 d6 67 0c 3c de 70 16 3c bd b0 90 3b c9 e3 2d 3c
       0.008569678 0.009182183 0.0044156 0.01061339
000230 68 41 00 3c ec 49 0c 3c ea 8a 20 3c 68 f6 3d 3c
       0.007828094 0.008562546 0.009798745 0.011594392
000240 85 5c 5b 3b 10 a7 06 ba 25 8a 8a 3b 81 b0 24 3c
       0.0033471894 -0.00051365886 0.004227894 0.010051847
000250 1d c6 37 bb 38 fb 87 bb 75 89 02 3c 80 75 4c ba
       -0.0028041669 -0.0041498207 0.007967343 -0.0007799491
000260 84 a4 68 3c 34 26 97 ba a5 fd 67 bb 55 d7 83 3b
       0.01419938 -0.0011531771 -0.0035398987 0.0040234723
000270 78 c7 1a 3c 4c ff 39 3b c1 c0 c2 3b ff f4 d6 3b
       0.009446971 0.0028380929 0.005943388 0.0065599675
000280 a3 a3 9e 3b e2 49 3f 3b dd 8b ff 3a 25 95 5c 3b
       0.0048412844 0.0029188325 0.0019496639 0.0033658233
000290 90 7d 85 ba 99 2d 4f 3b 5a 34 61 3b 3e 37 0a 3a
       -0.0010184515 0.0031612872 0.003436348 0.0005272514
0002a0 89 cc f7 bb 71 e8 0d bc 44 f6 18 bc cf 66 80 bb
       -0.0075622243 -0.008661375 -0.009336058 -0.0039185057
0002b0 91 58 00 bc 0c 04 f6 bb c5 80 4c bb da 76 b4 b9
       -0.007833616 -0.0075078066 -0.0031204682 -0.00034420827
0002c0 17 4f 03 bb b7 f9 dc bb 02 0e 55 3b 75 5a 29 bb
       -0.0020036155 -0.0067436355 0.003250957 -0.002584127
0002d0 f1 16 9b 3b f1 a9 0c b9 27 24 16 3b 2d d2 94 3b
       0.0047329594 -0.00013414749 0.0022909732 0.0045416565
0002e0 71 3f bf 3b 1f dc 5e 3b 1f 3b 19 3c 97 16 13 3b
       0.00583642 0.0034005714 0.0093524745 0.0022443885
0002f0 6b 12 c1 3b 9c f1 66 3b 38 88 15 3c 5d 7c 12 3c
       0.005892088 0.0035239225 0.009126715 0.008940783
000300 72 f3 2e 3b 2b 91 8b 3b 4a f8 1d 3c b4 96 a6 3b
       0.0026695398 0.0042592487 0.009641716 0.005083883
000310 4f c6 f0 bb ed ee 9a bb 11 e7 ef bb c0 73 a4 b8
       -0.007347859 -0.004728189 -0.0073212464 -7.8416895e-05
000320 48 a3 29 bb 0d e9 61 3b bc 54 41 3a c0 33 44 3c
       -0.0025884677 0.0034471184 0.0007374992 0.011975229
000330 32 fa e7 3b 91 f6 68 3c ce b8 0b 3c 06 a1 4b 3c
       0.007079386 0.014218942 0.008527948 0.012428528
000340 b0 b7 d5 3a c5 a4 64 ba a0 60 36 bb bc dd 4d 3b
       0.0016305353 -0.00087220623 -0.002782859 0.0031412682
000350 51 c1 68 bb bf c9 2c bb 55 22 46 bb 8e 1a 2a 3a
       -0.0035515616 -0.0026365367 -0.0030232866 0.00064889423
000360 6d 08 1b bc ba 0a 85 bb 30 0f 67 bc fb a5 6a bc
       -0.009462458 -0.0040601166 -0.014102742 -0.014321799
000370 44 32 61 bb 9f fb 31 bb 52 6a b0 bb d3 a7 3b b8
       -0.0034362236 -0.0027158034 -0.005383768 -4.4740573e-05
000380 e0 46 9b 3b 75 4c ee bb 9d 1f 02 3b 69 31 0f bc
       0.0047386736 -0.007272298 0.0019855269 -0.008739808
000390 54 46 10 3b 35 b0 c8 3a 76 21 04 bb dc bb 32 bb
       0.0022014575 0.0015311303 -0.0020161546 -0.0027272617
0003a0 07 47 b9 3b 4f 2b 8c 3a aa f3 04 3b a6 a2 09 3c
       0.005654219 0.0010694059 0.0020286837 0.008400595
0003b0 58 aa 5f 3b 77 95 08 3c 62 16 1b 3c a7 64 b6 3a
       0.0034128632 0.008336416 0.009465786 0.0013915495
0003c0 da 8b 1d 3b 10 96 f2 39 89 ba fe 3b a7 11 94 bb
       0.0024039657 0.00046269642 0.0077737016 -0.004518706
0003d0 31 9a 7d ba 5e 9d 7e bb 9a 62 8a bb cd 0b 9e 3b
       -0.00096741604 -0.0038851122 -0.00422318 0.004823184
0003e0 c2 d2 3d 3b 27 20 06 3c fa dc 9e 3b 75 9c 06 3c
       0.0028964733 0.008186377 0.00484812 0.008216013
0003f0 69 e6 4e 3c da ed 68 3c 13 29 2d 3b 38 75 5d 3c
       0.012628176 0.0142168645 0.0026422187 0.013516717

fc.bias f4 [2]
000000 ef f7 21 3b 84 ab 0b 3b
       0.002471443 0.0021311948
